2025-01-31 22:14:19,709 INFO: Configuration:
2025-01-31 22:14:19,709 INFO: IMG_SIZE: 224, BATCH_SIZE: 32, LR: 0.001, EPOCHS: 10, KFOLDS: 2
2025-01-31 22:14:19,710 INFO: Device: cuda
2025-01-31 22:14:29,377 INFO: --- Fold 1/2 ---
2025-01-31 22:14:29,474 INFO: Model architecture for fold 1:
ImprovedBinaryCNN(
  (conv1): Conv2d(3, 32, kernel_size=(3, 3), stride=(1, 1), padding=(1, 1))
  (bn1): BatchNorm2d(32, eps=1e-05, momentum=0.1, affine=True, track_running_stats=True)
  (act1): LeakyReLU(negative_slope=0.1)
  (conv2): Conv2d(32, 64, kernel_size=(3, 3), stride=(1, 1), padding=(1, 1))
  (bn2): BatchNorm2d(64, eps=1e-05, momentum=0.1, affine=True, track_running_stats=True)
  (act2): LeakyReLU(negative_slope=0.1)
  (pool1): MaxPool2d(kernel_size=2, stride=2, padding=0, dilation=1, ceil_mode=False)
  (conv3): Conv2d(64, 128, kernel_size=(3, 3), stride=(1, 1), padding=(1, 1))
  (bn3): BatchNorm2d(128, eps=1e-05, momentum=0.1, affine=True, track_running_stats=True)
  (act3): LeakyReLU(negative_slope=0.1)
  (pool2): MaxPool2d(kernel_size=2, stride=2, padding=0, dilation=1, ceil_mode=False)
  (global_pool): AdaptiveAvgPool2d(output_size=(1, 1))
  (dropout): Dropout(p=0.5, inplace=False)
  (fc): Linear(in_features=128, out_features=1, bias=True)
)
2025-01-31 22:14:45,476 INFO: Epoch [1/10] Train Loss: 0.6698, Train Acc: 0.6001 | Val Loss: 0.6617, Val Acc: 0.6149
2025-01-31 22:15:00,567 INFO: Epoch [2/10] Train Loss: 0.6457, Train Acc: 0.6333 | Val Loss: 0.6224, Val Acc: 0.6716
2025-01-31 22:15:15,657 INFO: Epoch [3/10] Train Loss: 0.6240, Train Acc: 0.6654 | Val Loss: 0.6354, Val Acc: 0.6149
2025-01-31 22:15:30,273 INFO: Epoch [4/10] Train Loss: 0.5836, Train Acc: 0.7048 | Val Loss: 0.5742, Val Acc: 0.7175
…
2025-01-31 23:19:56,484 INFO: Epoch [12/20] Train Loss: 0.4456, Train Acc: 0.7942 | Val Loss: 0.4398, Val Acc: 0.8085
2025-01-31 23:20:12,712 INFO: Epoch [13/20] Train Loss: 0.4488, Train Acc: 0.7923 | Val Loss: 0.4398, Val Acc: 0.8083
2025-01-31 23:20:29,493 INFO: Epoch [14/20] Train Loss: 0.4483, Train Acc: 0.7979 | Val Loss: 0.4425, Val Acc: 0.8069
2025-01-31 23:34:13,066 INFO: Configuration:
2025-01-31 23:34:13,066 INFO: IMG_SIZE: 224, BATCH_SIZE: 64, LR: 0.001, EPOCHS: 20, KFOLDS: 2
2025-01-31 23:34:13,066 INFO: Device: cuda
2025-01-31 23:34:13,167 INFO: Train samples: 9766, Val samples: 2790
2025-01-31 23:34:13,268 INFO: Model architecture:
ImprovedBinaryCNN(
  (conv1): Conv2d(3, 32, kernel_size=(3, 3), stride=(1, 1), padding=(1, 1))
  (bn1): BatchNorm2d(32, eps=1e-05, momentum=0.1, affine=True, track_running_stats=True)
  (act1): LeakyReLU(negative_slope=0.1)
  (conv2): Conv2d(32, 64, kernel_size=(3, 3), stride=(1, 1), padding=(1, 1))
  (bn2): BatchNorm2d(64, eps=1e-05, momentum=0.1, affine=True, track_running_stats=True)
  (act2): LeakyReLU(negative_slope=0.1)
  (pool1): MaxPool2d(kernel_size=2, stride=2, padding=0, dilation=1, ceil_mode=False)
  (conv3): Conv2d(64, 128, kernel_size=(3, 3), stride=(1, 1), padding=(1, 1))
  (bn3): BatchNorm2d(128, eps=1e-05, momentum=0.1, affine=True, track_running_stats=True)
  (act3): LeakyReLU(negative_slope=0.1)
  (pool2): MaxPool2d(kernel_size=2, stride=2, padding=0, dilation=1, ceil_mode=False)
  (global_pool): AdaptiveAvgPool2d(output_size=(1, 1))
  (dropout): Dropout(p=0.5, inplace=False)
  (fc): Linear(in_features=128, out_features=1, bias=True)
)
2025-01-31 23:34:35,917 INFO: Configuration:
2025-01-31 23:34:35,918 INFO: IMG_SIZE: 224, BATCH_SIZE: 64, LR: 0.001, EPOCHS: 15, KFOLDS: 2
2025-01-31 23:34:35,918 INFO: Device: cuda
2025-01-31 23:34:36,017 INFO: Train samples: 9766, Val samples: 2790
2025-01-31 23:34:36,020 INFO: Model architecture:
ImprovedBinaryCNN(
  (conv1): Conv2d(3, 32, kernel_size=(3, 3), stride=(1, 1), padding=(1, 1))
  (bn1): BatchNorm2d(32, eps=1e-05, momentum=0.1, affine=True, track_running_stats=True)
  (act1): LeakyReLU(negative_slope=0.1)
  (conv2): Conv2d(32, 64, kernel_size=(3, 3), stride=(1, 1), padding=(1, 1))
  (bn2): BatchNorm2d(64, eps=1e-05, momentum=0.1, affine=True, track_running_stats=True)
  (act2): LeakyReLU(negative_slope=0.1)
  (pool1): MaxPool2d(kernel_size=2, stride=2, padding=0, dilation=1, ceil_mode=False)
  (conv3): Conv2d(64, 128, kernel_size=(3, 3), stride=(1, 1), padding=(1, 1))
  (bn3): BatchNorm2d(128, eps=1e-05, momentum=0.1, affine=True, track_running_stats=True)
  (act3): LeakyReLU(negative_slope=0.1)
  (pool2): MaxPool2d(kernel_size=2, stride=2, padding=0, dilation=1, ceil_mode=False)
  (global_pool): AdaptiveAvgPool2d(output_size=(1, 1))
  (dropout): Dropout(p=0.5, inplace=False)
  (fc): Linear(in_features=128, out_features=1, bias=True)
)
2025-01-31 23:35:03,281 INFO: Epoch [1/15] Train Loss: 0.5488, Train Acc: 0.7218 | Val Loss: 0.5147, Val Acc: 0.7498
2025-01-31 23:35:29,668 INFO: Epoch [2/15] Train Loss: 0.5130, Train Acc: 0.7528 | Val Loss: 0.5129, Val Acc: 0.7505
2025-01-31 23:36:02,626 INFO: Configuration:
2025-01-31 23:36:02,627 INFO: IMG_SIZE: 224, BATCH_SIZE: 64, LR: 0.001, EPOCHS: 15, KFOLDS: 2
2025-01-31 23:36:02,627 INFO: Device: cuda
2025-01-31 23:36:02,759 INFO: Train samples: 9766, Val samples: 2790
2025-01-31 23:36:02,850 INFO: Model architecture:
ImprovedBinaryCNN(
  (conv1): Conv2d(3, 32, kernel_size=(3, 3), stride=(1, 1), padding=(1, 1))
  (bn1): BatchNorm2d(32, eps=1e-05, momentum=0.1, affine=True, track_running_stats=True)
  (act1): LeakyReLU(negative_slope=0.1)
  (conv2): Conv2d(32, 64, kernel_size=(3, 3), stride=(1, 1), padding=(1, 1))
  (bn2): BatchNorm2d(64, eps=1e-05, momentum=0.1, affine=True, track_running_stats=True)
  (act2): LeakyReLU(negative_slope=0.1)
  (pool1): MaxPool2d(kernel_size=2, stride=2, padding=0, dilation=1, ceil_mode=False)
  (conv3): Conv2d(64, 128, kernel_size=(3, 3), stride=(1, 1), padding=(1, 1))
  (bn3): BatchNorm2d(128, eps=1e-05, momentum=0.1, affine=True, track_running_stats=True)
  (act3): LeakyReLU(negative_slope=0.1)
  (pool2): MaxPool2d(kernel_size=2, stride=2, padding=0, dilation=1, ceil_mode=False)
  (global_pool): AdaptiveAvgPool2d(output_size=(1, 1))
  (dropout): Dropout(p=0.5, inplace=False)
  (fc): Linear(in_features=128, out_features=1, bias=True)
)
2025-01-31 23:36:30,162 INFO: Epoch [1/15] Train Loss: 0.5485, Train Acc: 0.7221 | Val Loss: 0.5237, Val Acc: 0.7645
2025-01-31 23:36:57,090 INFO: Epoch [2/15] Train Loss: 0.5131, Train Acc: 0.7538 | Val Loss: 0.5674, Val Acc: 0.7215
2025-01-31 23:37:23,438 INFO: Epoch [3/15] Train Loss: 0.4785, Train Acc: 0.7743 | Val Loss: 0.4500, Val Acc: 0.7964
2025-01-31 23:37:49,854 INFO: Epoch [4/15] Train Loss: 0.4270, Train Acc: 0.8138 | Val Loss: 0.4141, Val Acc: 0.8222
…
